…
2018-06-05 02:11:51.918817: I tensorflow/core/common_runtime/gpu/gpu_device.cc:1041] Created TensorFlow device (/job:localhost/replica:0/task:0/device:GPU:0 with 7373 MB memory) -> physical GPU (device: 0, name: Quadro M4000, pci bus id: 0000:00:05.0, compute capability: 5.2)
__________________________________________________________________________________________________
Layer (type)                    Output Shape         Param #     Connected to                     
==================================================================================================
input_1 (InputLayer)            (None, 1, 400, 1)    0                                            
__________________________________________________________________________________________________
conv2d_1 (Conv2D)               (None, 1, 400, 256)  512         input_1[0][0]                    
__________________________________________________________________________________________________
batch_normalization_1 (BatchNor (None, 1, 400, 256)  1024        conv2d_1[0][0]                   
__________________________________________________________________________________________________
activation_1 (Activation)       (None, 1, 400, 256)  0           batch_normalization_1[0][0]      
__________________________________________________________________________________________________
conv2d_2 (Conv2D)               (None, 1, 400, 256)  196864      activation_1[0][0]               
__________________________________________________________________________________________________
batch_normalization_2 (BatchNor (None, 1, 400, 256)  1024        conv2d_2[0][0]                   
__________________________________________________________________________________________________
activation_2 (Activation)       (None, 1, 400, 256)  0           batch_normalization_2[0][0]      
__________________________________________________________________________________________________
conv2d_4 (Conv2D)               (None, 1, 400, 256)  512         input_1[0][0]                    
__________________________________________________________________________________________________
conv2d_3 (Conv2D)               (None, 1, 400, 256)  65792       activation_2[0][0]               
__________________________________________________________________________________________________
batch_normalization_4 (BatchNor (None, 1, 400, 256)  1024        conv2d_4[0][0]                   
__________________________________________________________________________________________________
batch_normalization_3 (BatchNor (None, 1, 400, 256)  1024        conv2d_3[0][0]                   
__________________________________________________________________________________________________
add_1 (Add)                     (None, 1, 400, 256)  0           batch_normalization_4[0][0]      
                                                                 batch_normalization_3[0][0]      
__________________________________________________________________________________________________
activation_3 (Activation)       (None, 1, 400, 256)  0           add_1[0][0]                      
__________________________________________________________________________________________________
reshape_1 (Reshape)             (None, 400, 256)     0           activation_3[0][0]               
__________________________________________________________________________________________________
bidirectional_1 (Bidirectional) (None, 400)          731200      reshape_1[0][0]                  
__________________________________________________________________________________________________
dense_1 (Dense)                 (None, 2)            802         bidirectional_1[0][0]            
==================================================================================================
Total params: 999,778
Trainable params: 997,730
Non-trainable params: 2,048
__________________________________________________________________________________________________
Estimated GPU memory for Asclepius model by layers : 7.818 GB
Running on batch size 900 for 40 epochs with 6 worker processes --> run ID: asclepius_human20_minimal_200_baseline_dropout_0.3
…
